checkpoints/GINN-model.pt (torch, 276516 bytes, 13 tensors)

net.0.freqs.weight f4 [128, 5]
0.34225947 0.2688841 0.24211007 -0.00023845541 0.16323948 0.3511396 0.1978233 -0.42693356
-0.011146412 0.02121758 0.055392407 0.08654413 0.2799617 0.101019084 -0.63922185 -0.123427905
0.31993896 0.024235623 0.20313242 0.023051716 -0.12955092 -0.08778563 0.11911276 -0.27013743
0.14461122 0.01970666 0.48463252 -0.0550346 -0.0017869528 0.101917826 -0.33262697 0.1311154
-0.14615773 0.06590441 -0.12323334 -0.37468088 0.3324492 -0.46833432 0.011099049 0.01995431
0.31070298 0.1619028 0.13977352 0.29502758 -0.04766711 -0.14708479 0.22672383 0.40717876
-0.112645335 0.050739538 -0.06283535 -0.24790275 0.062092245 -0.19857234 0.07995895 0.2776873
0.10124101 -0.3688802 0.0888903 -0.0740879 -0.40514144 -0.37891236 0.13035515 -0.024521895
-0.021970356 0.04286016 -0.052608967 0.002550316 0.04754775 -0.25354823 -0.39636496 0.40300664
-0.15968347 0.029002046 -0.06419449 -0.3208108 -0.38015622 0.27179638 -0.023904637 0.020834558
-0.09318946 -0.017669184 0.14695513 0.45916533 0.27457777 -0.45611724 0.088104405 -0.2589146
-0.01506477 -0.09072232 0.03582769 -0.30463162 -0.13852477 -0.037881903 -0.9379906 -0.21884923
-0.2083804 -0.5042607 -0.0064075687 0.2010072 0.13064608 -0.39358023 -0.03645838 -0.19947566
-0.028905243 -0.23757476 0.25713295 -0.44480148 0.034327682 0.15201934 -0.2964593 0.17395587
-0.09959399 0.07155798 0.614011 -0.14680837 -0.07006763 -0.33898818 -0.10615523 0.042997643
0.102622814 -0.079349935 0.29774305 0.020838287 -0.18884933 -0.05711836 -0.27895427 0.1326297
-1.3038521 -0.5175936 0.09474624 0.19227885 0.4396144 -0.08045353 0.020761987 0.02283503
-0.4292185 -0.42961705 0.009105437 -0.046168346 -0.37671167 0.048511997 0.20716044 0.03969309
-0.17136838 0.3449479 0.19881949 0.36745813 -0.11695901 0.06660305 0.13964096 0.2973174
0.17159897 0.03048336 0.044326924 0.54823256 -0.04745445 0.49472252 -0.017394712 0.39962733
0.48708797 0.03753108 -0.37448606 -0.060832232 0.008383714 -0.168929 -0.19473992 -0.39032787
0.0968295 0.10482518 0.12126548 0.46552017 0.03500736 0.05928573 -0.019346807 -0.21981053
-0.11749271 -0.011203977 -0.22784783 0.03572771 -0.28438625 0.33701 0.2366234 0.022559857
-0.08898681 0.14868212 -0.18325166 -0.1302571 -0.20496777 -0.51495385 -0.17187917 0.32366917
-0.22248042 0.0057383594 0.0897855 0.17289999 -0.017617073 0.059687614 0.08363936 -0.008793603
0.12796852 -0.008741261 -0.00813685 0.04654326 -2.830243 0.36407062 -0.15778299 -0.30527225
0.03956841 -0.6283085 -0.054227296 0.28764212 -0.011697033 -0.0030998534 -0.054570496 0.12552713
-0.042496793 -0.057136938 1.7845435 0.0137359 -0.0066653835 -0.42491874 0.4015744 0.11022647
0.010910141 0.25190207 0.30156374 -0.37677407 -0.019770589 -0.039060403 -0.03356372 -0.41573036
0.41714552 -0.09840221 0.07162972 0.23254476 -0.35140097 -0.025747145 -0.12490791 -0.035403308
-0.40432617 0.19770353 0.039251566 -0.25275674 0.03205055 -0.0034092478 0.056100555 0.0133814495
-0.4820403 0.26396698 0.28795558 -0.3127133 -0.48209476 0.28702596 -0.0071786726 0.19934766
00000000: a23c af3e 2dab 893e b4eb 773e e309 7ab9
00000010: 4028 273e 92c8 b33e 3192 4a3e 0997 dabe
00000020: 719f 36bc 7ed0 ad3c 26e3 623d 0d3e b13d
00000030: 2457 8f3e 18e3 ce3d 0ba4 23bf c5c7 fcbd
00000040: 0acf a33e c989 c63c f201 503e f4d6 bc3c
00000050: ffa8 04be f4c8 b3bd 64f1 f33d 744f 8abe
00000060: f714 143e dd6f a13c c121 f83e f66b 61bd
00000070: 3038 eaba 4bba d03d 154e aabe 1e43 063e
00000080: 5faa 15be e4f8 863d c361 fcbd 2cd6 bfbe
00000090: c836 aa3e 84c9 efbe c9d8 353c 3977 a33c
000000a0: 7614 9f3e d9c9 253e ca20 0f3e db0d 973e
000000b0: 963e 43bd 659d 16be 4b2a 683e bc79 d03e
000000c0: 99b2 e6bd 43d4 4f3d d2af 80bd 38da 7dbe
000000d0: 7054 7e3d 8c56 4bbe 85c1 a33d 082d 8e3e
000000e0: 7257 cf3d dedd bcbe 1e0c b63d 66bb 97bd
000000f0: b36e cfbe cd00 c2be d27b 053e 24e2 c8bc
00000100: 2dfb b3bc 238e 2f3d 807c 57bd 3423 273b
00000110: 6ec1 423d 13d1 81be 59f0 cabe e356 ce3e
00000120: 1084 23be b395 ed3c 6778 83bd 5041 a4be
00000130: d6a3 c2be e528 8b3e a8d3 c3bc 3cad aa3c
00000140: 1eda bebd f7be 90bc 687b 163e b817 eb3e
00000150: 7595 8c3e 3388 e9be 1570 b43d 7490 84be
00000160: 3ad2 76bc a0cc b9bd 0ec0 123d adf8 9bbe
00000170: 70d9 0dbe 0e2a 1bbd 2720 70bf 031a 60be
00000180: ac61 55be 3b17 01bf 95f6 d1bb d5d4 4d3e
00000190: 16c8 053e 5983 c9be 6255 15bd 5943 4cbe
000001a0: b0ca ecbc cc46 73be eea6 833e 05bd e3be
000001b0: 2f9b 0c3d f5aa 1b3e 83c9 97be 7d21 323e
000001c0: eff7 cbbd fd8c 923d d32f 1d3f ef54 16be
000001d0: 9e7f 8fbd dc8f adbe ea67 d9bd 4c1e 303d
000001e0: e92b d23d 3882 a2bd c771 983e 0eb5 aa3c
000001f0: b861 41be f1f4 69bd 18d3 8ebe 14d0 073e
00000200: a0e4 a6bf 0481 04bf 510a c23d bfe4 443e
00000210: 2315 e13e d2c4 a4bd 0b15 aa3c 8710 bb3c
00000220: 87c2 dbbe c4f6 dbbe f92e 153c 051b 3dbd
00000230: 5ae0 c0be 84b4 463d de21 543e 3995 223d
00000240: 317b 2fbe 039d b03e 5697 4b3e 7923 bc3e
00000250: 3588 efbd 2e67 883d 0afe 0e3e fc39 983e
00000260: a4b7 2f3e 3db8 f93c 2690 353d f858 0c3f
00000270: 995f 42bd 454c fd3e 5b7f 8ebc f49b cc3e
00000280: 9863 f93e 31ba 193d a3bc bfbe 382b 79bd
00000290: d85b 093c b9fb 2cbe e769 47be 0ed9 c7be
000002a0: 8b4e c63d 95ae d63d 095a f83d a958 ee3e
000002b0: e163 0f3d 98d5 723d 327d 9ebc 0316 61be
000002c0: 05a0 f0bd e390 37bc f150 69be 3857 123d
000002d0: 139b 91be 938c ac3e 684d 723e 73cf b83c
000002e0: b73e b6bd 2040 183e 53a6 3bbe 1e62 05be
000002f0: 12e3 51be 04d4 03bf 1801 30be f7b7 a53e
00000300: e8d1 63be d908 bc3b 76e1 b73d b20c 313e
00000310: ae51 90bc 007b 743d 1d4b ab3d 0b13 10bc
00000320: 2e0a 033e 8237 0fbc 6c50 05bc 25a4 3e3d
00000330: b422 35c0 7767 ba3e dd91 21be a54c 9cbe
00000340: 7c12 223d d3d8 20bf 711d 5ebd d445 933e
00000350: eaa4 3fbc e926 4bbb 5085 5fbd 2f8a 003e
00000360: 1e11 2ebd 6c08 6abd ec6b e43f 8a0c 613c
00000370: 4a69 dabb f38e d9be 299b cd3e 6abe e13d
00000380: 73c0 323c 4ff9 803e 9066 9a3e 88e8 c0be
00000390: eef5 a1bc cdfd 1fbd 1c7a 09bd 9cda d4be
000003a0: 1994 d53e 1987 c9bd 9ab2 923d 3720 6e3e
000003b0: d4ea b3be adeb d2bc b8cf ffbd 0f03 11bd
000003c0: d703 cfbe cb72 4a3e 40c6 203d 5569 81be
000003d0: 7047 033d b06d 5fbb b2c9 653d de3d 5b3c
000003e0: fccd f6be ae26 873e ea6e 933e f51b a0be
000003f0: 20d5 f6be 11f5 923e 123b ebbb cb21 4c3e

net.0.freqs.bias f4 [128]
-0.040703937 -0.15180907 -0.012765106 0.35109577 0.20776735 -0.33829534 -0.094748035 -0.16994484
-0.22166821 -0.17858097 -0.23620604 -0.372092 0.44721583 0.030122224 0.38054025 -0.10129139
-0.09702654 0.05609323 0.5113189 0.057017237 -0.3812727 -0.4775496 -0.07283344 -0.22516398
-0.44420403 0.30363742 -0.009644637 -0.020072503 0.030044487 -0.24085163 0.35042694 0.35148025
0.08355096 -0.3276245 0.42672893 -0.31788096 -0.3484881 0.41682634 0.0059875143 -0.053332992
0.15201186 0.2289385 0.37878615 0.43380576 0.025653036 -0.028158883 0.37121177 -0.08527683
0.027813677 0.44211805 -0.43735257 -0.35476625 -0.3000924 -0.38692224 -0.35958305 0.026252711
-0.25045604 -0.27870303 0.19037049 -0.064096734 0.3554607 0.17924912 -0.08914335 0.3849505
0.1921004 0.26235014 -0.44187883 0.39284337 0.031645775 0.39329746 0.18590702 -0.048008576
0.3427109 -0.14444155 -0.1023815 0.25620332 0.2366682 0.24073514 -0.3234614 0.0795142
-0.09072366 -0.22167227 0.3975497 -0.15181898 0.03540348 0.15740597 -0.38920233 -0.20252948
-0.12611653 0.39892492 -0.012933023 -0.31105787 0.08891436 0.4169982 -0.27638358 0.08217371
-0.34919694 -0.08695307 -0.4447292 -0.0727397 -0.24135418 0.15395689 0.026391752 -0.24089709
-0.14506279 -0.19062829 0.20347078 0.08238076 0.027017642 -0.017578654 -0.3719507 0.39764372
-0.41272187 0.20342295 -0.36827993 -0.2563795 -0.2964786 0.1080731 0.14005779 0.12566969
-0.12024846 0.22041605 0.26612338 -0.26271603 -0.03352581 0.33750445 0.19962679 0.055969782
00000000: 2cb9 26bd d673 1bbe bc24 51bc d3c2 b33e
00000010: f7c0 543e 0c35 adbe 420b c2bd 0506 2ebe
00000020: fefc 62be eedd 36be ffdf 71be d882 bebe
00000030: 79f9 e43e e2c2 f63c 2cd6 c23e dc71 cfbd
00000040: dab5 c6bd 04c2 653d cce5 023f e88a 693d
00000050: 2d36 c3be 6281 f4be b329 95bd 6391 66be
00000060: b66e e3be 5d76 9b3e 8a04 1ebc 176f a4bc
00000070: db1f f63c cfa1 76be 296b b33e 38f5 b33e
00000080: c41c ab3d 66be a7be 377c da3e 4bc1 a2be
00000090: 086d b2be 436a d53e e932 c43b b273 5abd
000000a0: ffa8 1b3e db6e 6a3e 42f0 c13e ca1b de3e
000000b0: 5126 d23c 75ad e6bc 780f be3e 9ea5 aebd
000000c0: 82d9 e33c 4c5d e23e adec dfbe eca3 b5be
000000d0: b6a5 99be ac1a c6be 451b b8be ed0f d73c
000000e0: c63b 80be 2ab2 8ebe 7bf0 423e 2645 83bd
000000f0: f2fe b53e 158d 373e ca90 b6bd 3b18 c53e
00000100: f8b5 443e c252 863e f13d e2be c422 c93e
00000110: 009f 013d 495e c93e 695e 3e3e a4a4 44bd
00000120: ce77 af3e 7ce8 13be 64ad d1bd 152d 833e
00000130: 2659 723e 4683 763e bc9c a5be 57d8 a23d
00000140: 54cd b9bd 0efe 62be a28b cb3e 6f76 1bbe
00000150: 3d03 113d 082f 213e 8745 c7be e363 4fbe
00000160: b124 01be e33f cc3e 08e5 53bc fa42 9fbe
00000170: bb18 b63d ca80 d53e 2682 8dbe b14a a83d
00000180: f1c9 b2be 7314 b2bd 8cb3 e3be 8df8 94bd
00000190: 8d25 77be e0a6 1d3e 8433 d83c baad 76be
000001a0: 578b 14be 1034 43be a55a 503e 3eb7 a83d
000001b0: 1a54 dd3c 1c01 90bc 5270 bebe f597 cb3e
000001c0: 4850 d3be 1b4e 503e 308f bcbe 2c44 83be
000001d0: 0bcc 97be 6e55 dd3d 4f6b 0f3e 8eaf 003e
000001e0: d344 f6bd bfb4 613e 5341 883e b782 86be
000001f0: 5c52 09bd 62cd ac3e f76a 4c3e 9240 653d

net.0.scale.weight f4 [128, 5]
0.05685989 -0.10538099 0.23376372 0.036172148 0.2975029 -0.31671408 0.3098833 0.26937044
-0.013030483 0.016952641 0.40021497 0.6902799 0.18094087 -0.22259916 0.15762225 0.11580638
-0.22247736 0.13338913 -0.55640393 -0.13170397 0.3868326 -0.36507395 -0.38866538 -0.547497
0.2598306 -0.121598616 0.13408154 0.35868424 -0.08749849 -0.19801338 0.11981289 -0.057641603
0.007163512 -0.1757026 0.019132225 -0.07427962 -0.1997926 0.007086308 -0.16823173 -0.035276096
0.4379406 -0.54748523 0.17397651 -0.7261907 0.0993561 -0.19242422 0.058457043 -0.1592674
-0.17384984 0.2614158 -0.07234873 -0.8702353 -0.074874744 0.26559016 -0.059015527 -0.33969802
-0.44819498 -0.50370616 0.16720282 0.031930413 0.042798493 0.23725447 -0.49173254 0.1348135
0.0005117816 -0.13156927 -0.5258468 -0.0802747 -0.02093139 0.26442587 -0.5477635 0.4960459
-0.23761913 -0.048322424 0.0057215155 0.57610977 -0.20399418 0.0410722 -0.014149001 0.017115941
0.31917718 0.6446306 0.10802689 0.25748587 -0.3242774 -0.46657297 0.3359035 0.38192087
-0.009399954 -0.22338863 0.183677 0.030174278 0.20330225 0.41617015 1.075425 -0.19153388
0.12713829 -0.18921655 -0.031016162 0.13206816 0.15162495 0.043440394 -0.3845881 0.083660476
-0.047217697 0.17308953 -0.3064162 0.19151036 0.03955136 0.41516542 -0.14612298 -0.8771492
-0.20112714 0.28813136 0.44388407 0.12546584 -0.06288184 0.039440773 -0.21312249 0.1512169
-0.3421438 -0.08967358 0.059486378 0.012802292 -0.10623327 -0.23309976 0.011869395 -0.32113314
0.25738543 0.29522556 -0.112130634 0.051876813 0.49020958 0.43262053 0.27709785 -0.09426894
0.2814623 0.044379238 0.0013133434 0.039890442 -0.5228765 0.017953442 -0.37989998 -0.097688675
-0.011716808 -0.2772341 0.24172041 -0.073999524 0.17719227 -0.0008827619 0.37589702 0.4763605
0.2623378 -0.23382333 -0.10500776 -0.1757712 0.24577123 -0.019389175 -0.010990465 0.36727884
0.043755632 -0.5394925 0.004928159 -0.0062035904 -0.0011304746 -0.193227 0.0042819497 0.20240794
-0.15194531 -0.13303465 0.19134694 0.3273458 0.2855318 0.1917011 0.019148625 -0.22697915
-0.3546785 0.50462 -0.5303083 -0.07178411 0.033978082 0.42196053 -0.16289863 -0.041853625
-0.21789883 -0.27193642 0.1462495 0.26903307 -0.20693734 -0.3789916 -0.14276516 0.4232687
0.108199745 0.019823689 0.12190932 0.2372375 -0.4899415 0.081284456 -0.1535021 -0.30480763
0.10517098 0.40455353 -0.12039362 -0.033951666 -0.038050987 -0.39297327 0.09564588 -0.27549928
-0.016410017 -0.61963445 0.24904095 -0.06824319 -0.69793826 -0.112074 0.0531657 0.090566896
-0.4221616 -0.12580162 -0.7077919 -0.09519411 -0.0669891 -0.3280499 -0.4557178 -0.16942574
-0.017895238 0.20811896 -0.07812695 -0.23737538 0.08282729 -0.07910377 0.28704855 0.04589379
-0.11192935 -0.6290675 0.22166437 0.43342015 0.08207107 -0.8492037 0.041806307 0.17497468
-0.14153124 0.14091279 0.2710252 0.18474016 0.0049700914 -0.22397476 0.6262117 0.38310343
0.018522857 0.00610599 0.05420198 -0.028821945 0.14130026 0.4120689 -0.05989252 0.25645587
00000000: ebe5 683d fdd1 d7bd c25f 6f3e 3f29 143d
00000010: 4d52 983e 5928 a2be 06a9 9e3e ecea 893e
00000020: cf7d 55bc 44e0 8a3c fae8 cc3e 2fb6 303f
00000030: 9048 393e 09f1 63be ba67 213e e52b ed3d
00000040: 1bd1 63be 2997 083e 7d70 0ebf 68dd 06be
00000050: ec0e c63e f9ea babe 26ff c6be c328 0cbf
00000060: 8408 853e b208 f9bd ac4c 093e 76a5 b73e
00000070: 6932 b3bd 05c4 4abe 7660 f53d 9a19 6cbd
00000080: e5bb ea3b 62eb 33be 2fbb 9c3c ea1f 98bd
00000090: 6e96 4cbe 4334 e83b f044 2cbe ab7d 10bd
000000a0: c039 e03e fe27 0cbf e626 323e a2e7 39bf
000000b0: 367b cb3d db0a 45be a770 6f3d fe16 23be
000000c0: b105 32be 4bd8 853e 922b 94bd bec7 5ebf
000000d0: ee57 99bd 6ffb 873e 44ba 71bd e6ec adbe
000000e0: d079 e5be e3f2 00bf 3737 2b3e 77c9 023d
000000f0: 794d 2f3d d6f2 723e 5ec4 fbbe 8d0c 0a3e
00000100: 1529 063a 18ba 06be e59d 06bf 1067 a4bd
00000110: 4e78 abbc d462 873e 3b3a 0cbf baf9 fd3e
00000120: 6e52 73be bced 45bd 8d7b bb3b ee7b 133f
00000130: dae3 50be 533b 283d 36d1 67bc bb36 8c3c
00000140: 316b a33e 8306 253f 343d dd3d 30d5 833e
00000150: b007 a6be a7e2 eebe 8bfb ab3e 228b c33e
00000160: 4402 1abc fdbf 64be d315 3c3e 0c30 f73c
00000170: 772e 503e 4114 d53e 87a7 893f 7521 44be
00000180: 8a30 023e fcc1 41be 9b15 febc e03c 073e
00000190: 9243 1b3e 8eee 313d bbe8 c4be 2f56 ab3d
000001a0: 5867 41bd 623e 313e 96e2 9cbe 4b1b 443e
000001b0: 9b00 223d 9090 d43e 43a1 15be da8c 60bf
000001c0: 46f4 4dbe f485 933e c644 e33e 1e7a 003e
000001d0: 32c8 80bd a68c 213d c83c 5abe 9ad8 1a3e
000001e0: 792d afbe c8a6 b7bd fda7 733d b4c0 513c
000001f0: d490 d9bd b4b1 6ebe da77 423c 906b a4be
00000200: 06c8 833e ce27 973e bfa4 e5bd c87c 543d
00000210: c0fc fa3e 7080 dd3e c5df 8d3e 1310 c1bd
00000220: d41b 903e 01c7 353d 7e24 ac3a 2964 233d
00000230: 3cdb 05bf 1913 933c 4082 c2be 0011 c8bd
00000240: dbf7 3fbc a1f1 8dbe 8e85 773e 108d 97bd
00000250: e471 353e 2669 67ba 9375 c03e 86e5 f33e
00000260: 2451 863e 626f 6fbe 4f0e d7bd 5efd 33be
00000270: 74ab 7b3e 0cd6 9ebc 5a11 34bc f90b bc3e
00000280: 1b39 333d 2e1c 0abf 657c a13b 7d47 cbbb
00000290: 6f2c 94ba 4cdd 45be 994f 8c3b 0744 4f3e
000002a0: 8d97 1bbe 3c3a 08be 74f0 433e de99 a73e
000002b0: 3931 923e 4b4d 443e 94dd 9c3c 396d 68be
000002c0: 6c98 b5be c72e 013f 49c2 07bf 8c03 93bd
000002d0: 9a2c 0b3d 360b d83e e6ce 26be b56e 2bbd
000002e0: df20 5fbe 403b 8bbe 6ec2 153e b4be 893e
000002f0: 62e7 53be 300b c2be 0831 12be adb6 d83e
00000300: d497 dd3d 4a65 a23c 98ab f93d 63ee 723e
00000310: 9dd9 fabe 7778 a63d a82f 1dbe bf0f 9cbe
00000320: e263 d73d a421 cf3e ee90 f6bd e710 0bbd
00000330: 5adb 1bbd cb33 c9be fde1 c33d 3e0e 8dbe
00000340: 4d6e 86bc 5da0 1ebf 9704 7f3e 16c3 8bbd
00000350: 15ac 32bf 0e87 e5bd 47c4 593d 237b b93d
00000360: 9125 d8be 24d2 00be da31 35bf 21f5 c2bd
00000370: 9531 89bd 28f6 a7be d853 e9be f17d 2dbe
00000380: 0999 92bc 231d 553e 0601 a0bd 8812 73be
00000390: 5ba1 a93d 2801 a2bd 07f8 923e 20fb 3b3d
000003a0: 373b e5bd 910a 21bf fcfb 623e 3fe9 dd3e
000003b0: e114 a83d 6a65 59bf 173d 2b3d 902c 333e
000003c0: 91ed 10be 714b 103e d1c3 8a3e 862c 3d3e
000003d0: 26dc a23b a459 65be 694f 203f 2226 c43e
000003e0: 3fbd 973c c214 c83b e502 5e3d 001c ecbc
000003f0: 04b1 103e b2fa d23e dc51 75bd 2f4e 833e

net.0.scale.bias f4 [128]
0.29289457 -0.2518091 0.059536155 -0.33853313 -0.2476387 -0.22171706 -0.22494534 -0.24093682
-0.2507077 -0.3242662 0.005167493 -0.017705297 0.17660597 0.13845795 -0.39929193 0.1517109
0.09561687 -0.3686524 -0.3907689 -0.32559747 0.2609923 0.45921192 -0.027902732 -0.17710252
-0.024839945 0.2900407 0.40138415 -0.29139283 -0.45101446 0.38226852 0.24565253 -0.47041085
-0.44850355 0.317673 0.44196135 -0.43027344 -0.46831524 -0.36548993 -0.48863626 0.052979585
-0.18363519 -0.41912138 0.15060458 -0.12956041 -0.4455267 -0.16316833 0.381942 0.21307106
0.36324832 0.048731565 -0.284196 0.1944992 0.11607655 -0.40561894 0.41392764 -0.5696933
-0.09779152 -0.52295935 0.3353111 0.47322 0.17008321 -0.43349886 -0.38178658 0.5073722
0.45575932 0.14905383 0.39125308 -0.28912675 0.2672234 0.110310875 -0.24386133 -0.39693695
0.16806258 -0.33964762 0.46012446 -0.23280708 0.1850839 -0.30972302 0.4309492 0.009173873
0.5126834 0.3215629 0.34792715 -0.25485757 -0.21869452 0.1008804 -0.43593588 0.3761343
0.111576766 -0.46606532 -0.316397 0.31767935 -0.42227554 -0.3570497 -0.4198258 -0.48501956
-0.28320572 0.43248376 -0.24083225 0.36695328 0.20147403 0.12367466 0.45146078 -0.40556103
0.057356358 -0.1534906 0.22470279 0.41631988 -0.16675106 -0.29438072 0.3342357 -0.47640896
-0.03933774 -0.06267979 -0.08895727 -0.3962701 -0.17637618 -0.3277934 -0.26881224 -0.47156352
0.19545762 -0.2657348 -0.34875205 0.46490404 0.2983701 0.44956607 0.113978684 0.24653389
00000000: 47f6 953e 1fed 80be 2fdc 733d 3754 adbe
00000010: 0095 7dbe cc09 63be 1258 66be 24b8 76be
00000020: c25c 80be 3806 a6be 1354 a93b b30a 91bc
00000030: 32d8 343e ecc7 0d3e fe6f ccbe 1a5a 1b3e
00000040: c7d2 c33d 02c0 bcbe dc12 c8be b6b4 a6be
00000050: c8a0 853e d31d eb3e 4594 e4bc 5d5a 35be
00000060: 247d cbbc 3780 943e 3982 cd3e 7131 95be
00000070: 5eeb e6be b3b8 c33e 568c 7b3e b1d9 f0be
00000080: 42a2 e5be 09a6 a23e c248 e23e cd4c dcbe
00000090: 04c7 efbe 7f21 bbbe 882e fabe 1f01 593d
000000a0: dd0a 3cbe 1497 d6be 1638 1a3e 7cab 04be
000000b0: 131c e4be 9915 27be e78d c33e 4d2f 5a3e
000000c0: affb b93e c09a 473d 2382 91be cc2a 473e
000000d0: 8bb9 ed3d 49ad cfbe 53ee d33e 6cd7 11bf
000000e0: ec46 c8bd aae0 05bf e6ad ab3e e449 f23e
000000f0: 4b2a 2e3e 90f3 ddbe 8879 c3be 25e3 013f
00000100: 4959 e93e 91a1 183e 5352 c83e 6c08 94be
00000110: 81d1 883e abea e13d c9b6 79be 523b cbbe
00000120: 9918 2c3e 4be6 adbe 6f95 eb3e fb64 6ebe
00000130: a286 3d3e 0494 9ebe 60a5 dc3e 034e 163c
00000140: 383f 033f e4a3 a43e 8223 b23e b17c 82be
00000150: 75f1 5fbe 629a ce3d fd32 dfbe ad94 c03e
00000160: 5c82 e43d 1da0 eebe cafe a1be dea6 a23e
00000170: 8034 d8be 38cf b6be 68f3 d6be 7c54 f8be
00000180: 5700 91be 836e dd3e bb9c 76be 4de1 bb3e
00000190: 354f 4e3e 2449 fd3d de25 e73e b2a5 cfbe
000001a0: 80ee 6a3d a42c 1dbe 7d18 663e e127 d53e
000001b0: cac0 2abe 12b9 96be f120 ab3e e0eb f3be
000001c0: 9c20 21bd 435e 80bd 3b2f b6bd eae3 cabe
000001d0: f59b 34be 89d4 a7be c2a1 89be c670 f1be
000001e0: 0b26 483e 640e 88be a18f b2be e707 ee3e
000001f0: f7c3 983e 862d e63e a86d e93d 6173 7c3e

net.1.freqs.weight f4 [128, 128]
-0.27111822 0.03442083 -0.3718716 0.10437963 -0.16585639 -0.1986013 0.5079169 0.12806387
-0.2786448 0.086065136 0.18905327 -0.04473132 0.06330028 0.1589499 0.14086024 0.07502243
0.005773961 0.038744032 -0.67140985 -0.057449225 -0.1674634 -0.71071607 0.093329914 -0.056496877
-0.026033102 -0.11206986 -0.70671827 0.027846523 -0.3903189 -0.11172106 -0.26932585 0.034140386
-0.00085770275 -0.48801824 0.026460944 -0.26725692 0.23341304 0.08412464 0.4171351 -0.17759885
-0.19557917 -0.13038264 -0.23180126 0.16098765 0.3811827 -0.11362259 -0.22926646 0.1252072
0.3044453 0.14349665 0.32282397 -0.18168058 -0.28244776 -0.21815743 -0.2776833 0.397932
0.061158646 0.7169245 0.021750597 0.17206621 -0.8156804 0.026331551 0.25916803 -0.14616293
0.6781651 0.1193595 0.17943822 -0.19765896 -0.2438269 -0.38401186 -0.54336655 0.67394817
0.086008705 0.6482011 -0.27110305 0.13003074 0.19744784 -0.22225103 0.32696277 -0.020683063
-0.20176575 0.45688534 -0.07201123 0.24195467 -0.1075803 -0.057527546 -1.1658719 -0.033423413
0.17829427 0.14679934 -0.12771836 -0.13497926 -0.33854723 0.056556754 0.13906296 0.06455429
-0.41474226 0.60184276 -0.038173243 -0.019380817 0.29921705 0.040163834 -0.21081764 -0.15906364
-0.21378149 0.7360286 -0.16965792 -0.13570318 0.057736244 -0.30976754 -0.268866 -0.059026614
0.055807546 -0.06241035 -0.24641839 -0.038192805 -0.006045816 -0.5235894 0.5226533 -0.21613732
0.43226182 -0.44814748 0.072716445 -0.36822027 -0.059549954 -0.60637146 0.17745225 0.04486256
0.30009884 0.26718932 0.67687297 -0.2627919 -0.049167667 0.91298306 -0.30975968 -0.065590255
0.061020788 0.21087915 -0.1923644 0.048959285 0.25032106 -0.02176529 0.061015133 0.10134252
0.1299829 -0.3589033 0.24986184 0.28937587 0.0075825453 -0.5181547 -0.11381641 -0.49336275
0.134473 -0.15599997 -0.055240437 -0.0057364004 0.03659722 0.34221187 0.29194063 -0.30152476
-0.30094436 0.52393436 0.45549467 0.060180493 -0.2663168 -0.3033209 0.34793574 -0.11653899
0.081074156 0.065152146 0.5291519 -0.64011097 0.5755215 -0.08697201 0.48403725 0.04878599
-0.4031716 0.066521145 0.45180932 0.007384918 -0.17383865 0.0018141482 0.006457276 0.098530605
-0.17999421 -0.3141938 0.12869884 -0.78966177 -0.18439953 -0.097496584 -0.5600346 0.525081
-0.12683098 0.24658848 0.0644179 0.279372 0.2700976 0.093721226 -0.5162675 -0.41623312
0.054788034 -0.38169995 0.2940143 -0.29242685 -0.46624783 0.41716224 0.12991957 -0.030327804
0.3416652 -0.9306516 0.06575842 0.20621087 0.11622332 -0.15835662 0.3104968 -0.04928849
-0.19470637 -0.043621555 -0.059664857 0.34914765 0.57119685 0.2982418 -0.48666584 -0.24058166
-0.13784172 0.15170188 0.0060139727 -0.09195329 0.09134078 -0.49487728 -0.362971 -0.119228356
-0.0061903787 -0.19119173 -0.07212471 0.37467086 -0.34726804 0.56789017 0.17238292 0.060393646
-0.10086831 0.06487548 0.49076015 -0.04348586 0.551453 0.6365132 0.2660689 -0.21062376
-0.4998422 0.26516873 -0.07401542 0.38464305 -0.055347513 -0.224813 0.034752112 -0.31303748
00000000: 02d0 8abe dbfc 0c3d f465 bebe fdc4 d53d
00000010: 42d6 29be 245e 4bbe d806 023f 2d23 033e
00000020: 88aa 8ebe eb42 b03d 2e97 413e 3038 37bd
00000030: 94a3 813d c3c3 223e ab3d 103e 5ca5 993d
00000040: 7f33 bd3b 10b2 1e3d 84e1 2bbf e14f 6bbd
00000050: 877b 2bbe 7df1 35bf c123 bf3d 4569 67bd
00000060: 5f43 d5bc e284 e5bd 7deb 34bf 641e e43c
00000070: e1d7 c7be 03ce e4bd 14e5 89be cad6 0b3d
00000080: 75d7 60ba 87dd f9be 9fc4 d83c e6d5 88be
00000090: d403 6f3e 8a49 ac3d bb92 d53e 79dc 35be
000000a0: e845 48be 0783 05be 4f5d 6dbe f2d9 243e
000000b0: 612a c33e f6b2 e8bd d4c4 6abe 5136 003e
000000c0: 41e0 9b3e c9f0 123e 2f49 a53e 790a 3abe
000000d0: fe9c 90be a964 5fbe 812c 8ebe bebd cb3e
000000e0: 7d81 7a3d 5d88 373f 4f2e b23c 2032 303e
000000f0: 6ed0 50bf 44b5 d73c acb1 843e bcab 15be
00000100: 3a9c 2d3f c172 f43d a7be 373e 1c67 4abe
00000110: c2ad 79be 349d c4be 121a 0bbf de87 2c3f
00000120: 5525 b03d 82f0 253f 05ce 8abe c726 053e
00000130: c42f 4a3e c695 63be aa67 a73e 876f a9bc
00000140: ae9b 4ebe e0ec e93e a07a 93bd f7c2 773e
00000150: 0f53 dcbd 01a2 6bbd 4a3b 95bf fde6 08bd
00000160: c692 363e 9152 163e 9ac8 02be 0138 0abe
00000170: 1056 adbe 0ea8 673d 8566 0e3e 0a35 843d
00000180: 1959 d4be 5e12 1a3f 8c5b 1cbd 85c4 9ebc
00000190: fa32 993e d582 243d 94e0 57be 94e1 22be
000001a0: 89e9 5abe 5f6c 3c3f ceba 2dbe c6f5 0abe
000001b0: d77c 6c3d da99 9ebe cea8 89be e4c5 71bd
000001c0: 7496 643d ffa1 7fbd 1a55 7cbe 0f70 1cbd
000001d0: fb1b c6bb f409 06bf 9bcc 053f 1a53 5dbe
000001e0: 6c51 dd3e 9673 e5be 5cec 943d 5e87 bcbe
000001f0: a7ea 73bd 293b 1bbf 0bb6 353e cec1 373d
00000200: 8ea6 993e 0acd 883e 8c47 2d3f a98c 86be
00000210: 0964 49bd 42b9 693f d298 9ebe 2f54 86bd
00000220: eff0 793d b4f0 573e 2cfb 44be 8889 483d
00000230: 152a 803e 1f4d b2bc 01eb 793d ab8c cf3d
00000240: 3d1a 053e 2cc2 b7be c8db 7f3e 1329 943e
00000250: 0077 f83b c9a5 04bf 9418 e9bd 0b9a fcbe
00000260: 4ab3 093e 75be 1fbe cc43 62bd 6af8 bbbb
00000270: f7e6 153d 6536 af3e 3e79 953e 7461 9abe
00000280: 6115 9abe 9020 063f 9936 e93e d27f 763d
00000290: ad5a 88be e14c 9bbe a224 b23e feab eebd
000002a0: 350a a63d 7d6e 853d 8076 073f 50de 23bf
000002b0: 6155 133f 621e b2bd bbd3 f73e d1d3 473d
000002c0: 826c cebe 3d3c 883d 8d53 e73e 2ffd f13b
000002d0: c202 32be b6c8 ed3a 8f97 d33b 6aca c93d
000002e0: 6750 38be 02de a0be a1c9 033e 4627 4abf
000002f0: 3bd3 3cbe 4aac c7bd 6d5e 0fbf b56b 063f
00000300: fbdf 01be b181 7c3e 88ed 833d d909 8f3e
00000310: 3c4a 8a3e eaf0 bf3d 1b2a 04bf 821c d5be
00000320: 6b69 603d 2d6e c3be 0b89 963e f9b8 95be
00000330: 09b8 eebe 4a96 d53e a309 053e 0472 f8bc
00000340: beee ae3e 2f3f 6ebf 5aac 863d f128 533e
00000350: 7e06 ee3d 3d28 22be 70f9 9e3e bae2 49bd
00000360: 1b61 47be 84ac 32bd 2363 74bd 7bc3 b23e
00000370: f539 123f 26b3 983e 442c f9be 0a5b 76be
00000380: 6126 0dbe bd57 1b3e dc10 c53b 0252 bcbd
00000390: e010 bb3d 8e60 fdbe 56d7 b9be ff2d f4bd
000003a0: a9d8 cabb c4c7 43be 1fb6 93bd dcd4 bf3e
000003b0: 1ecd b1be 4061 113f 2685 303e 545f 773d
000003c0: 0b94 cebd 70dd 843d ea44 fb3e 3b1e 32bd
000003d0: 062c 0d3f 87f2 223f 2f3a 883e c1ad 57be
000003e0: 51eb ffbe 32c4 873e 6695 97bd efef c43e
000003f0: 13b4 62bd 6135 66be 3b58 0e3d 7346 a0be

net.1.freqs.bias f4 [128]
0.058726523 0.07742592 0.5367668 -0.2286556 -0.3034838 0.46914396 0.40301868 0.3931499
0.24946143 0.24992028 0.36967504 0.19286917 -0.014391188 -0.019975565 0.3384074 -0.49592432
0.18602131 -0.4832014 -0.47767097 0.3664712 -0.08038588 0.050097995 0.22892135 -0.22975889
0.45568305 -0.31643283 -0.84269434 0.14760852 0.4393542 0.5390671 0.25487357 -0.33657637
-0.23484921 0.37030068 -0.05820417 -0.23533654 -0.42257366 0.09757868 -0.021002328 0.114408605
-0.28950337 -0.5320602 0.2949986 0.24482201 0.090068966 0.43490022 -0.19526519 -0.32858932
-0.6574341 -0.12813738 -0.25453392 0.5189348 0.20854625 0.5617307 0.0703894 -0.03801156
0.3152515 -0.49915865 0.65396863 -0.4774412 0.052214015 -0.016731644 -0.06548004 -0.5005871
-0.19293097 0.3459479 0.60577244 0.07410418 -0.32619783 0.02675902 0.10782497 0.034863766
-0.18246074 0.33696607 0.09743327 -0.22507626 0.14018011 -0.3583517 0.4586645 -0.7059585
0.42741054 0.48413748 -0.008472917 -0.5400453 -0.51398873 0.47241965 0.1615047 -0.4508408
0.103944294 -0.0052932207 0.09415869 -0.07511455 -0.59356827 -0.24105208 -0.012759391 0.23781839
-0.5439793 -0.5608953 0.100213334 -0.17101178 0.38091847 0.34619606 -0.30557004 0.35784644
-0.32585293 0.5246656 -0.166974 -0.1981037 0.029507782 -0.4407945 0.27480027 0.15872683
-0.22666402 0.580299 0.38879538 -0.17622174 -0.34914753 0.16792619 -0.44464093 0.022383498
0.3983723 -0.30538827 -0.42691392 -0.34012866 -0.24390082 -0.21042505 0.16719344 -0.12018439
00000000: 398b 703d 7b91 9e3d 8d69 093f b224 6abe
00000010: 3b62 9bbe a333 f03e 7758 ce3e f24a c93e
00000020: d172 7f3e 1aeb 7f3e 0c46 bd3e 7f7f 453e
00000030: 04c9 6bbc cca3 a3bc bc43 ad3e cbe9 fdbe
00000040: 5f7c 3e3e 2d66 f7be 4a91 f4be 1da2 bb3e
00000050: 5aa1 a4bd 8e33 4d3d 5c6a 6a3e ea45 6bbe
00000060: 4a4f e93e 7c03 a2be d1ba 57bf b026 173e
00000070: 09f3 e03e 4d00 0a3f ca7e 823e bd53 acbe
00000080: 507c 70be 0d98 bd3e 7f67 6ebd 10fc 70be
00000090: 935b d8be 55d7 c73d 130d acbc 0f4f ea3d
000000a0: c939 94be 1935 08bf 0e0a 973e 9fb2 7a3e
000000b0: 1476 b83d 3eab de3e 99f3 47be dc3c a8be
000000c0: 9a4d 28bf 7236 03be 4552 82be e9d8 043f
000000d0: 268d 553e 95cd 0f3f 5128 903d 02b2 1bbd
000000e0: a568 a13e b991 ffbe 7d6a 273f 2c73 f4be
000000f0: 5dde 553d cd10 89bc 661a 86bd 7a26 00bf
00000100: b28f 45be 1520 b13e e713 1b3f efc3 973d
00000110: 6703 a7be bb35 db3c 56d3 dc3d 4fcd 0e3d
00000120: fdd6 3abe d186 ac3e 188b c73d 647a 66be
00000130: 608b 0f3e e079 b7be 13d6 ea3e b2b9 34bf
00000140: 8ed5 da3e dee0 f73e fdd1 0abc 6940 0abf
00000150: c494 03bf fde0 f13e 7d61 253e 9bd4 e6be
00000160: bfe0 d43d c172 adbb 45d6 c03d a8d5 99bd
00000170: 17f4 17bf 5bd6 76be c40c 51bc aa86 733e
00000180: 3a42 0bbf d696 0fbf a63c cd3d b61d 2fbe
00000190: bf07 c33e 9c40 b13e ad73 9cbe a637 b73e
000001a0: 32d6 a6be 7c50 063f 3bfb 2abe b2db 4abe
000001b0: 4eba f13c d1af e1be 9fb2 8c3e 4989 223e
000001c0: 9d1a 68be 7a8e 143f 3010 c73e 7973 34be
000001d0: 77c3 b2be d8f4 2b3e faa7 e3be 995d b73c
000001e0: 74f7 cb3e da5b 9cbe 7694 dabe 5825 aebe
000001f0: 23c1 79be aa79 57be c234 2b3e 3c23 f6bd

net.1.scale.weight f4 [128, 128]
-0.1328394 0.039143737 0.071130104 0.065781966 0.018004306 -0.06204712 0.020184455 0.016436776
-0.06247485 0.033136528 0.0009262529 -0.010256125 0.0025157947 -0.03845699 -0.010426148 -0.0020586941
0.0497482 0.041025966 -0.15754813 -0.053446528 0.06761523 0.028601049 -0.03473936 -0.07281922
-0.033220135 -0.21846105 0.05661001 -0.0013192124 -0.053399086 0.07452743 -0.038849194 0.0025647122
-0.04293236 -0.13393414 -0.013826245 0.010683725 0.06318761 -0.13311996 0.039233807 0.042494994
-0.12822895 0.08912201 -0.004061775 0.19998285 -0.13047911 0.03912287 -0.03550454 -0.0040444634
-0.047733054 0.034101248 -0.026914367 -0.0069058877 0.01143212 0.073491305 -0.1610718 -0.005207684
-0.002087711 -0.080005094 0.008804178 0.018582497 0.22007039 0.1117607 -0.027691115 0.020574452
0.15045862 0.05742503 0.028362345 0.0059422413 -0.012273369 0.0860263 -0.045730993 -0.024179837
-0.16129272 0.21633494 0.027087517 0.019737484 -0.06993138 -0.059838183 -0.022925176 0.013078269
0.02444684 -0.06225456 0.0062403684 -0.05938741 0.012421745 -0.096573524 -0.009972963 -0.02105403
-0.035400745 0.005638239 0.081702605 0.0444501 -0.09998462 -0.009783473 0.032196477 0.04436599
0.23701683 -0.16688076 0.05544808 0.13624015 -0.07216458 0.10082826 0.04862064 -0.002866435
-0.00048139677 0.0931269 -0.07722832 -0.1055393 -0.022124257 0.044932693 -0.099782616 -0.077394575
0.07896283 0.12261628 -0.028097263 0.1349544 -0.009792498 0.020619936 0.012446319 -0.20070031
0.21726938 0.0028842704 0.08110218 -0.14540249 -0.044413038 0.188073 -0.01484848 0.17556109
0.0055058287 0.1708137 -0.0757444 -0.15660666 -0.018211553 0.25688872 -0.085929036 0.023820579
-0.010936946 0.23721763 -0.026460636 -0.06796828 -0.06233196 0.05575759 -0.06615516 -0.013187479
0.046132118 -0.05949021 -0.039120644 -0.06389433 -0.09928628 -0.07047425 0.0068764915 0.14980803
0.0081062345 0.05465631 0.038967587 -0.17866722 0.16776027 0.045895025 0.13855322 -0.0014017534
0.16091016 0.0048675556 0.21022281 -0.3067662 0.07618723 0.03951161 -0.023378873 0.04346503
-0.038491458 0.11034177 -0.14860053 0.04171142 0.09404344 -0.02909632 0.017075624 0.114001185
-0.09596951 0.11403441 -0.06680277 -0.020208787 -0.059669565 0.09052516 -0.15376902 0.059279937
0.09511879 -0.084917784 -0.16984108 -0.064817786 -0.12870204 -0.22449291 -0.011939755 -0.25751373
0.19921808 -0.049938962 0.0057474445 0.066602446 -0.0032605012 0.025659472 0.04968851 0.22210625
0.1399641 -0.106542505 0.10852781 -0.16793443 -0.02813101 0.024662007 -0.12506914 -0.042733595
-0.07637217 -0.25676695 -0.021221533 0.061713446 0.031040037 -0.0894157 -0.06746199 0.035969567
0.07276016 -0.15930368 0.23358549 0.13445792 0.03459261 -0.06961393 -0.08306111 0.090246506
0.050759856 -0.05561604 0.064004496 -0.07020649 0.09243851 -0.016620113 0.018941415 0.007883908
-0.08348604 0.011442401 0.0004956941 0.22180149 0.008912975 -0.13094401 -0.024398398 -0.0035309328
-0.006375351 -0.07795009 -0.037153527 0.22291958 0.055106394 -0.13246465 -0.21448845 0.04011981
0.13899486 -0.026780427 -0.22788589 0.018918743 -0.029497359 0.03335164 0.004013884 -0.013633485
00000000: 0d07 08be 2f55 203d a9ac 913d b2b8 863d
00000010: c47d 933c 1f25 7ebd df59 a53c 6ba6 863c
00000020: a1e5 7fbd 2bba 073d c8cf 723a 4e09 28bc
00000030: 08e0 243b 1485 1dbd 6fd2 2abc 28eb 06bb
00000040: c5c4 4b3d d80a 283d 4c54 21be bfea 5abd
00000050: db79 8a3d bf4c ea3c dc4a 0ebd 3e22 95bd
00000060: d611 08bd 41b4 5fbe e6df 673d 6ce9 acba
00000070: 00b9 5abd d6a1 983d 5520 1fbd bb14 283b
00000080: d8d9 2fbd 0826 09be 7a87 62bc ca0a 2f3c
00000090: 8168 813d 9950 08be a1b3 203d 3b0f 2e3d
000000a0: 734e 03be 9a85 b63d a318 85bb 4ec8 4c3e
000000b0: 519c 05be 4d3f 203d 356d 11bd 6b87 84bb
000000c0: bc83 43bd c0ad 0b3d 857b dcbc c94a e2bb
000000d0: c94d 3b3c 9c82 963d 02f0 24be 38a5 aabb
000000e0: fad1 08bb b6d9 a3bd 663f 103c 523a 983c
000000f0: 225a 613e cbe2 e43d 7ad8 e2bc c18b a83c
00000100: d311 1a3e 8236 6b3d 2658 e83c 22b7 c23b
00000110: 3e16 49bc 8f2e b03d 6c50 3bbd cb14 c6bc
00000120: eb29 25be e886 5d3e a4e6 dd3c 81b0 a13c
00000130: 2f38 8fbd e218 75bd 94cd bbbc 3c46 563c
00000140: bd44 c83c a3fe 7ebd 017c cc3b 3640 73bd
00000150: 9384 4b3c 57c8 c5bd a365 23bc 8079 acbc
00000160: 5f00 11bd fac0 b83b b253 a73d 4f11 363d
00000170: bdc4 ccbd dc4a 20bc 74e0 033d 1db9 353d
00000180: 8ab4 723e cae2 2abe 871d 633d 8a82 0b3e
00000190: 06cb 93bd 0c7f ce3d 7026 473d cdda 3bbb
000001a0: fb63 fcb9 51b9 be3d e229 9ebd fd24 d8bd
000001b0: ee3d b5bc 580b 383d d45a ccbd 0c81 9ebd
000001c0: 44b7 a13d 3f1e fb3d 3b2c e6bc 7c31 0a3e
000001d0: b770 20bc 24eb a83c a5eb 4b3c 6284 4dbe
000001e0: dd7b 5e3e 0706 3d3b e618 a63d 64e4 14be
000001f0: 72ea 35bd 3596 403e 0a47 73bc 49c6 333e
00000200: 3d6a b43b c9e9 2e3e e11f 9bbd 7f5d 20be
00000210: 6530 95bc eb86 833e 90fb afbd 6023 c33c
00000220: e030 33bc 2ee9 723e fac3 d8bc f432 8bbd
00000230: cc4f 7fbd 1262 643d 5b7c 87bd 4c10 58bc
00000240: 08f5 3c3d 02ac 73bd f83c 20bd 08db 82bd
00000250: 9b56 cbbd ce54 90bd 3154 e13b 4767 193e
00000260: 03d0 043c 4bdf 5f3d 7a9c 1f3d 8af4 36be
00000270: 59c9 2b3e 6cfc 3b3d e5e0 0d3e 0abb b7ba
00000280: a2c5 243e 0480 9f3b a644 573e 7610 9dbe
00000290: 0d08 9c3d edd6 213d 0d85 bfbc 6308 323d
000002a0: 38a9 1dbd defa e13d bd2a 18be 98d9 2a3d
000002b0: d999 c03d 685b eebc 2ee2 8b3c 7479 e93d
000002c0: aa8b c4bd df8a e93d e4cf 88bd e68c a5bc
000002d0: 1368 74bd 4165 b93d a075 1dbe 85cf 723d
000002e0: a4cd c23d 60e9 adbd d2ea 2dbe 30bf 84bd
000002f0: 78ca 03be 78e1 65be f69e 43bc d7d8 83be
00000300: d3ff 4b3e cc8c 4cbd 0f55 bc3b dd66 883d
00000310: 22ae 55bb d033 d23c 2e86 4b3d d26f 633e
00000320: c052 0f3e f532 dabd d443 de3d 01f7 2bbe
00000330: 0173 e6bc fa07 ca3c 2012 00be 6c09 2fbd
00000340: 0369 9cbd f576 83be c8d8 adbc 3dc7 7c3d
00000350: ad47 fe3c 941f b7bd 8329 8abd d354 133d
00000360: 4703 953d 8120 23be 0931 6f3e 56af 093e
00000370: fbb0 0d3d c091 8ebd f11b aabd 29d3 b83d
00000380: 91e9 4f3d a5cd 63bd ca14 833d 6cc8 8fbd
00000390: 6750 bd3d e726 88bc 072b 9b3c 822b 013c
000003a0: bbfa aabd e978 3b3c 78f1 013a ee1f 633e
000003b0: ba07 123c 3016 06be 26df c7bc 3967 67bb
000003c0: 52e8 d0bb 4ca4 9fbd 4c2e 18bd 0845 643e
000003d0: 3eb7 613d d0a4 07be dca2 5bbe ab54 243d
000003e0: ab54 0e3e a062 dbbc eb5a 69be 7bfb 9a3c
000003f0: 72a4 f1bc bb9b 083d e686 833b fb5e 5fbc

net.1.scale.bias f4 [128]
0.054150637 0.049607668 -0.025909457 0.071068615 0.036599625 0.014912895 0.120840035 0.09493715
-0.07583751 0.0072468114 0.21273893 0.027457912 -0.034189954 -0.16985404 -0.1166104 0.023535412
0.16756149 -0.11235166 0.052078992 -0.045251552 0.076242425 0.056604866 -0.11631101 0.018113911
-0.0677985 -0.005672735 0.13805856 0.25065738 -0.09697503 0.028894247 0.07106863 -0.046955917
-0.16712686 -0.039546683 0.22618239 0.22233927 0.0029556046 -0.027637405 -0.18876989 0.17875944
0.024317091 0.06622894 -0.30037296 0.31868282 0.04774544 -0.07604752 -0.030095713 -0.012047795
0.075924344 0.0060481937 -0.028287552 0.0433065 -0.20916842 -0.18085746 0.03018282 0.09160897
0.2472534 0.18696149 -0.026408527 -0.113942094 0.07238054 -0.07040338 -0.12451991 0.1360116
0.06845466 -0.05160123 0.13200355 0.13179109 0.11337931 0.1960282 0.046338476 -0.04246169
0.06615804 -0.14293067 -0.09716308 -0.071820885 0.1312951 0.031765655 -0.09471226 -0.005925125
0.023713643 -0.27205315 -0.17852184 0.10871024 -0.02711275 0.19925512 -0.116422854 -0.0051878304
0.11082808 0.00023378347 0.122605614 -0.16744533 0.0060776416 -0.28466347 0.054214414 -0.030688304
-0.16571882 -0.1303039 0.08701519 0.26324672 0.12026119 0.020576205 0.0522762 -0.10454511
-0.14291714 -0.1383189 0.09008503 0.062939905 -0.104968674 -0.013408519 0.07050168 -0.008287404
-0.039648883 0.06943685 -0.054898247 0.12608054 -0.010223896 0.12886517 0.092524424 -0.19298133
0.16880369 -0.27956706 -0.05057473 -0.0010122638 -0.10199024 0.18593188 -0.10479748 -0.020060271
00000000: 0fcd 5d3d 6931 4b3d 1240 d4bc 6c8c 913d
00000010: 7de9 153d 3755 743c fb7a f73d 696e c23d
00000020: b250 9bbd a976 ed3b 3cd8 593e 6aef e03c
00000030: c40a 0cbd 38ee 2dbe 6fd1 eebd 56cd c03c
00000040: 3d95 2b3e a118 e6bd c850 553d b159 39bd
00000050: fd24 9c3d 81da 673d 7834 eebd a063 943c
00000060: f1d9 8abd 5ae2 b9bb 395f 0d3e 2a56 803e
00000070: d89a c6bd a1b3 ec3c 6e8c 913d d954 40bd
00000080: 4e23 2bbe b4fb 21bd 5b9c 673e e8ac 633e
00000090: d1b2 413b d767 e2bc e54c 41be b70c 373e
000000a0: a334 c73c 0aa3 873d 7cca 99be 652a a33e
000000b0: b990 433d cdbe 9bbd 498b f6bc 1d64 45bc
000000c0: 397e 9b3d ed2f c63b 4cbb e7bc 2862 313d
000000d0: 3f30 56be b332 39be f641 f73c 7c9d bb3d
000000e0: ff2f 7d3e d572 3f3e b256 d8bc 795a e9bd
000000f0: 403c 943d a62f 90bd 4b04 ffbd a046 0b3e
00000100: f531 8c3d d05b 53bd f02b 073e 3ef4 063e
00000110: 6933 e83d 9ebb 483e 6acd 3d3d 4fec 2dbd
00000120: de7d 873d 6b5c 12be 70fd c6bd d416 93bd
00000130: 3972 063e b41c 023d 80f8 c1bd 8d27 c2bb
00000140: 1d43 c23c 8d4a 8bbe 6ece 36be 79a3 de3d
00000150: 8f1b debc 8909 4c3e 1b6f eebd adfe a9bb
00000160: d5f9 e23d c623 7539 a718 fb3d ca76 2bbe
00000170: f426 c73b 69bf 91be ef0f 5e3d 0a66 fbbc
00000180: 32b2 29be 636e 05be 0535 b23d 46c8 863e
00000190: 804b f63d 6e8f a83c 921f 563d bf1b d6bd
000001a0: df58 12be 78a3 0dbe 807e b83d a3e6 803d
000001b0: d1f9 d6bd 68af 5bbc 2f63 903d e4c7 07bc
000001c0: de66 22bd e834 8e3d fcdc 60bd 421b 013e
000001d0: 2182 27bc 3bf5 033e 727d bd3d e69c 45be
000001e0: e0da 2c3e 6a23 8fbe 7327 4fbd f0ad 84ba
000001f0: 42e0 d0bd ed64 3e3e 10a0 d6bd 7055 a4bc

net.2.freqs.weight f4 [128, 128]
0.07669153 -0.07582885 -0.061813656 -0.12978996 0.1034978 -0.26207623 0.00495443 0.01668689
-0.07440836 -0.061172046 -0.16305493 -0.14046621 -0.19437176 -0.169023 -0.18322818 -0.054690044
-0.13490103 -0.07679595 -0.1925456 -0.015903609 -0.10546343 0.012045612 -0.04889806 -0.2147164
0.11088632 -0.067333184 -0.010059704 -0.017322589 -0.0577684 -0.14632882 -0.20130773 -0.08728003
-0.109412454 -0.044040706 -0.10323389 0.023707192 0.0035307708 -0.17123558 -0.13159968 -0.07612636
-0.073421024 -0.1857627 -0.058395874 -0.058352888 -0.22985472 -0.069209605 0.08025093 -0.17648727
-0.19422977 -0.041467633 -0.05848438 -0.18430051 -0.11068444 -0.07522986 -0.16096911 -0.0889338
-0.06596193 -0.03709943 -0.044117685 -0.1452784 0.051815573 -0.11442992 -0.25356832 -0.07367053
0.011262494 -0.0889738 -0.026466757 -0.021860171 -0.094503134 -0.077646196 -0.02250095 -0.12408744
-0.27757028 -0.12372189 -0.17924775 0.01612404 -0.015021915 -0.11056746 -0.20086169 -0.13898169
-0.13261677 -0.07740417 0.009131274 -0.21945983 -0.14574897 -0.19778828 -0.12817414 -0.0071475566
-0.17211384 -0.18799245 -0.042677496 -0.04064372 -0.08306697 0.0080583505 -0.04946108 -0.14536282
-0.14768535 0.028167862 0.05107501 -0.10883781 -0.17902225 -0.18436727 -0.1784593 -0.06088082
-0.064328864 0.05393157 0.006396747 -0.12695211 -0.028069792 -0.11237651 -0.10777522 -0.1358949
-0.14070137 -0.01691266 -0.15613593 -0.063476846 -0.04003735 -0.014041578 0.034474507 -0.079316616
-0.15297519 -0.22908334 -0.06457931 -0.014157942 0.041272264 -0.17821649 -0.12334204 -0.055689458
0.15343028 0.09098959 0.121691264 0.008198144 -0.007995111 0.07468421 0.13148299 0.040337015
0.084481835 -0.040985495 0.0019667395 0.027970904 0.08282378 -0.05042637 -0.00038233868 0.05867335
0.21450426 0.042529687 0.07899972 0.15309691 0.17930603 -0.0075700725 0.0855565 0.08165682
0.0023374874 0.19807805 0.14650404 0.15855259 0.06261826 0.04776946 0.1160373 0.13403603
0.07774772 0.075949185 0.12444174 0.035239365 -0.013079479 0.16926622 0.11950359 0.07718879
0.10573884 0.11740247 0.071074694 0.09671271 0.10035083 -0.041924253 0.02002798 0.1946182
0.108178854 -0.06665544 0.112704426 0.07291662 0.18844247 0.14144407 0.029825812 0.14393295
-0.058112066 -0.02066614 0.06413708 0.09531676 -0.062676296 0.12050048 -0.110444814 0.03915635
0.13393036 0.032918587 -0.047525074 -0.04438832 0.08833468 0.12681921 -0.01331947 0.106345035
0.038051676 -0.065857515 0.04287023 0.030027127 0.026150936 0.18798965 0.12681045 0.045676313
0.08526437 0.08142936 0.019080404 0.0960195 0.10358528 0.221525 -0.034804206 0.057167612
0.15171906 0.10231729 0.07475795 -0.0044841724 0.033999193 0.06326899 -0.15142429 0.12355786
0.11724353 0.0429203 0.076046355 0.12764926 0.17966951 0.15368798 0.08396112 0.11754319
0.18069047 0.013990064 0.03721259 0.11967472 -0.024045885 -0.020722551 0.13546857 0.012325568
0.016840437 0.00071002805 0.10182686 0.1866624 0.054827087 -0.0035255428 0.116856225 0.11658822
0.20586368 0.09952187 0.08238469 -0.0033107942 0.016254703 -0.02924448 0.18963781 0.007195126
00000000: 7310 9d3d 284c 9bbd 5130 7dbd a9e7 04be
00000010: a8f6 d33d db2e 86be c558 a23b f2b2 883c
00000020: 6963 98bd 8a8f 7abd dff7 26be 60d6 0fbe
00000030: 6409 47be 5e14 2dbe 2ba0 3bbe ab02 60bd
00000040: 7f23 0abe 3247 9dbd ac2a 45be 4948 82bc
00000050: 36fd d7bd f55a 453c 5549 48bd 9ede 5bbe
00000060: 5e18 e33d fbe5 89bd 75d1 24bc 1ae8 8dbc
00000070: 8f9e 6cbd 39d7 15be 9d23 4ebe dfbf b2bd
00000080: a313 e0bd 0764 34bd 4a6c d3bd 9635 c23c
00000090: 8164 673b 6158 2fbe 11c2 06be 23e8 9bbd
000000a0: c35d 96bd 9438 3ebe 8330 6fbd 7003 6fbd
000000b0: 095f 6bbe c4bd 8dbd 995a a43d 14b9 34be
000000c0: 2be4 46be f7d9 29bd 518d 6fbd 46b9 3cbe
000000d0: 86ae e2bd 1d12 9abd 16d5 24be ed22 b6bd
000000e0: 0c17 87bd 92f5 17bd bfb4 34bd dcc3 14be
000000f0: 913c 543d 3c5a eabd b5d3 81be 93e0 96bd
00000100: 5386 383c e537 b6bd d0d0 d8bc 1a14 b3bc
00000110: dc8a c1bd f804 9fbd ea53 b8bc 8e21 febd
00000120: b11d 8ebe e761 fdbd b98c 37be 9016 843c
00000130: 7a1e 76bc 3171 e2bd b0ae 4dbe 3751 0ebe
00000140: b1cc 07be 1486 9ebd 579b 153c 14ba 60be
00000150: 383f 15be 0389 4abe 1540 03be 0d36 eabb
00000160: 9c3e 30be 1881 40be 99ce 2ebd 087a 26bd
00000170: 041f aabd 2c07 043c b497 4abd fed9 14be
00000180: d43a 17be 4ac0 e63c 0834 513d 5ce6 debd
00000190: 9c51 37be c6ca 3cbe 09be 36be 2b5e 79bd
000001a0: dabe 83bd 5ae7 5c3d ce9b d13b bcff 01be
000001b0: 9ff2 e5bc a825 e6bd 41b9 dcbd 0828 0bbe
000001c0: 0514 10be 6b8c 8abc 19e2 1fbe 2600 82bd
000001d0: 34fe 23bd a60e 66bc 2435 0d3d c070 a2bd
000001e0: 87a5 1cbe d394 6abe 2842 84bd b6f6 67bc
000001f0: 1b0d 293d 627e 36be c09a fcbd a11a 64bd
00000200: d41c 1d3e c058 ba3d 4539 f93d 8251 063c
00000210: edfd 02bc 09f4 983d 7aa3 063e 6d38 253d
00000220: d004 ad3d 68e0 27bd 6ae4 003b 3d23 e53c
00000230: 849f a93d e28b 4ebd a174 c8b9 7753 703d
00000240: 01a7 5b3e 9c33 2e3d 9bca a13d 70c5 1c3e
00000250: 009c 373e 5f0e f8bb 3f38 af3d b13b a73d
00000260: 8830 193b f9d4 4a3e 2805 163e 9c5b 223e
00000270: 013e 803d e9a9 433d f7a4 ed3d be40 093e
00000280: 323a 9f3d 3f8b 9b3d 50db fe3d 2757 103d
00000290: 504b 56bc 2054 2d3e 4cbe f43d 2815 9e3d
000002a0: 9b8d d83d b570 f03d 9c8f 913d 5011 c63d
000002b0: bc84 cd3d c4b8 2bbd b811 a43c fe49 473e
000002c0: e08c dd3d a682 88bd 94d1 e63d 4f55 953d
000002d0: 10f7 403e b7d6 103e 4355 f43c 2963 133e
000002e0: eb06 6ebd 094c a9bc 4d5a 833d 6f35 c33d
000002f0: 6e5c 80bd f5c8 f63d e430 e2bd 6962 203d
00000300: 0a25 093e a4d5 063d a7a9 42bd 87d0 35bd
00000310: d0e8 b43d e5dc 013e e839 5abc 6dcb d93d
00000320: 13dc 1b3d 4ee0 86bd b298 2f3d 73fb f53c
00000330: 7d3a d63c 5c80 403e 99da 013e 1617 3b3d
00000340: 169f ae3d 70c4 a63d 824e 9c3c dfa5 c43d
00000350: 8524 d43d 73d7 623e db8e 0ebd 9628 6a3d
00000360: 3e5c 1b3e ba8b d13d b21a 993d f7ef 92bb
00000370: bd42 0b3d 2c93 813d f80e 1bbe e70b fd3d
00000380: 601d f03d 32cd 2f3d 31be 9b3d 7db6 023e
00000390: 49fb 373e 6260 1d3e cff3 ab3d 7cba f03d
000003a0: ec06 393e 9536 653c 3b6c 183d 0518 f53d
000003b0: e0fb c4bc 57c2 a9bc 46b8 0a3e 2ef1 493c
000003c0: f5f4 893c 2d21 3a3a 9a8a d03d 6e24 3f3e
000003d0: 5e92 603d cb0c 67bb 5152 ef3d cec5 ee3d
000003e0: eecd 523e 1fd2 cb3d 4eb9 a83d e9f9 58bb
000003f0: 9528 853c 1f92 efbc 6a30 423e 17c5 eb3b

net.2.freqs.bias f4 [128]
-0.15339127 0.22412245 -0.40119162 -0.1296917 0.22954011 0.2177499 -0.23967287 0.3220177
-0.15260637 -0.17082511 -0.18777879 -0.47321948 -0.18920608 0.3251898 -0.21355464 0.30640882
-0.23805848 0.41941825 -0.16074863 -0.38828564 0.1477959 -0.14112785 -0.19816265 -0.39881855
-0.22951527 -0.49385414 0.34032336 0.7432261 0.21384948 -0.29555503 -0.31187835 -0.13824937
0.19122355 0.27096325 0.6182992 0.45099187 -0.20466204 0.3032534 0.17294528 -0.4449476
0.34819287 0.29665962 -0.20966783 -0.4221706 -0.47570398 0.30671734 0.19863771 -0.13336886
0.15295647 0.12284842 -0.21087375 0.5036117 -0.14859533 0.39740786 -0.35429013 0.35126057
0.18837327 -0.20053393 0.27157843 -0.025391884 -0.16531432 0.16527517 0.1650192 0.2566121
0.58098125 0.30132985 -0.47319663 0.19472088 0.24682175 -0.1779429 -0.41029614 0.36820498
-0.4675729 0.16268492 -0.3176653 0.20625164 -0.19879681 0.07391933 0.06739056 -0.016416939
0.07737085 -0.11943797 -0.32139614 -0.14426336 0.26076135 0.26009136 -0.08229683 -0.46724096
0.23372945 0.4339765 -0.32623002 -0.1776098 0.13392714 -0.30016577 0.28960276 -0.24367175
0.13681482 -0.34274542 0.2319363 -0.17463493 -0.17702986 0.16030116 -0.2742622 -0.23269616
0.2314631 -0.1324507 0.19769937 0.13110079 -0.2786502 0.40454867 0.17135574 0.18838747
0.47490728 0.25066566 0.41676614 -0.13966554 0.1785539 0.28795135 -0.22032796 -0.14833133
-0.26143107 0.13396668 0.34331185 -1.0041482 0.2339966 0.29008108 -0.20249222 -0.16055515
00000000: 9a12 1dbe 5b80 653e fd68 cdbe e7cd 04be
00000010: 900c 6b3e d4f9 5e3e ce6c 75be 81df a43e
00000020: d844 1cbe c7ec 2ebe 1549 40be d349 f2be
00000030: 3dbf 41be 477f a63e 11ae 5abe 9ee1 9c3e
00000040: 9ac5 73be fdbd d63e 4a9b 24be 60cd c6be
00000050: cf57 173e d283 10be 26eb 4abe f231 ccbe
00000060: 0d06 6bbe 73da fcbe dd3e ae3e 1144 3e3f
00000070: 5cfb 5a3e fd52 97be 85ae 9fbe 3e91 0dbe
00000080: 1bd0 433e b2bb 8a3e db48 1e3f 68e8 e63e
00000090: ed92 51be 0844 9b3e 9118 313e 2cd0 e3be
000000a0: 5646 b23e c5e3 973e 2ab3 56be bf26 d8be
000000b0: 798f f3be 0e0a 9d3e af67 4b3e d991 08be
000000c0: 9fa0 1c3e f497 fb3d 4aef 57be b2ec 003f
000000d0: 6029 18be 0b79 cb3e 8465 b5be 6dd8 b33e
000000e0: ece4 403e c458 4dbe 540c 8b3e a402 d0bc
000000f0: 2848 29be e53d 293e cbfa 283e a962 833e
00000100: 30bb 143f e847 9a3e d446 f2be e964 473e
00000110: d7be 7c3e aa36 36be 5612 d2be 5d85 bc3e
00000120: b765 efbe e096 263e 07a5 a2be a133 533e
00000130: 6491 4bbe 0563 973d 1004 8a3d d17c 86bc
00000140: 9c74 9e3d e59b f4bd 098e a4be c6b9 13be
00000150: 8382 853e b22a 853e 3e8b a8bd 353a efbe
00000160: c656 6f3e 2b32 de3e 9f07 a7be 58df 35be
00000170: 3224 093e 54af 99be d046 943e 1685 79be
00000180: 2f19 0c3e 547c afbe b680 6d3e 80d3 32be
00000190: 5147 35be fd25 243e 186c 8cbe e747 6ebe
000001a0: aa04 6d3e 28a1 07be b471 4a3e 493f 063e
000001b0: 3dab 8ebe 0121 cf3e e177 2f3e a5e8 403e
000001c0: 0c27 f33e 4057 803e 5f62 d53e 7c04 0fbe
000001d0: d5d6 363e 5c6e 933e a79d 61be 2be4 17be
000001e0: 4bda 85be 902e 093e 92c6 af3e ee87 80bf
000001f0: ce9c 6f3e 8285 943e 1f5a 4fbe 9268 24be
